Layer name,Layer Type,IFMAP Height,IFMAP Width,Filter Height,Filter Width,Channels,Num Filter,Stride Height,Stride Width,IFMAP Source,Filter Source,PE,Dataflow
Conv1,0,224,224,11,11,3,96,4,4,-1,-1,0,ws
pool1,1,56,56,1,1,96,96,2,2,0,-1,0,ws
Conv2,0,28,28,5,5,96,256,1,1,1,-1,0,ws
pool2,1,28,28,1,1,256,256,2,2,2,-1,0,ws
Conv3,0,14,14,3,3,256,384,1,1,3,-1,0,ws
Conv4,0,14,14,3,3,384,384,1,1,4,-1,0,ws
Conv5,0,14,14,3,3,384,256,1,1,5,-1,0,os
